…
0.001, wdecay=0.0001, dropout=0.1, clip_grad_value=5)
2025-05-07 14:48:35,791 - Adj path: /home/weichen/stg_project/LargeST/data/pems08/pems08_rn_adj.npy
2025-05-07 14:48:36,145 - Data shape: (17856, 170, 3)
2025-05-07 14:48:36,287 - Sample num: 10700, Batch num: 167
2025-05-07 14:48:36,428 - Sample num: 3567, Batch num: 55
2025-05-07 14:48:36,569 - Sample num: 3566, Batch num: 55
2025-05-07 14:48:37,590 - The arc of model:
STTN(
  (t_modules): ModuleList(
    (0-1): 2 x TemporalTransformer(
      (layers): ModuleList(
        (0): ModuleList(
          (0): TemporalAttention(
            (qkv): Linear(in_features=32, out_features=96, bias=False)
            (attn_drop): Dropout(p=0.1, inplace=False)
            (proj): Linear(in_features=32, out_features=32, bias=True)
            (proj_drop): Dropout(p=0.1, inplace=False)
          )
          (1): PreNorm(
            (norm): LayerNorm((32,), eps=1e-05, elementwise_affine=True)
            (fn): FeedForward(
              (net): Sequential(
                (0): Linear(in_features=32, out_features=64, bias=True)
                (1): GELU(approximate='none')
                (2): Dropout(p=0.1, inplace=False)
                (3): Linear(in_features=64, out_features=32, bias=True)
                (4): Dropout(p=0.1, inplace=False)
              )
            )
          )
        )
      )
    )
  )
  (s_modules): ModuleList(
    (0-1): 2 x SpatialTransformer(
      (layers): ModuleList(
        (0): ModuleList(
          (0): SpatialAttention(
            (qkv): Linear(in_features=32, out_features=96, bias=False)
            (attn_drop): Dropout(p=0.1, inplace=False)
            (proj): Linear(in_features=32, out_features=32, bias=True)
            (proj_drop): Dropout(p=0.1, inplace=False)
          )
          (1): PreNorm(
            (norm): LayerNorm((32,), eps=1e-05, elementwise_affine=True)
            (fn): FeedForward(
              (net): Sequential(
                (0): Linear(in_features=32, out_features=64, bias=True)
                (1): GELU(approximate='none')
                (2): Dropout(p=0.1, inplace=False)
                (3): Linear(in_features=64, out_features=32, bias=True)
                (4): Dropout(p=0.1, inplace=False)
              )
            )
          )
          (2): GCN(
            (nconv): nconv()
            (mlp): linear(
              (mlp): Conv2d(160, 32, kernel_size=(1, 1), stride=(1, 1))
            )
          )
        )
      )
    )
  )
  (bn): ModuleList(
    (0-1): 2 x BatchNorm2d(32, eps=1e-05, momentum=0.1, affine=True, track_running_stats=True)
  )
  (start_conv): Conv2d(3, 32, kernel_size=(1, 1), stride=(1, 1))
  (end_conv_1): Conv2d(32, 512, kernel_size=(1, 1), stride=(1, 1))
  (end_conv_2): Conv2d(512, 12, kernel_size=(1, 1), stride=(1, 1))
)
2025-05-07 14:48:37,590 - Number of total parameters: 78796, tunable parameters: 78796
2025-05-07 14:48:37,590 - The number of parameters: 78796
2025-05-07 14:48:37,590 - Start training!
2025-05-07 14:49:22,992 - Epoch: 001, Train Loss: 31.3333, Train RMSE: 43.7449, Train MAPE: 0.3568, Valid Loss: 24.5397, Valid RMSE: 36.7265, Valid MAPE: 0.2109, Train Time: 40.8528s/epoch, Valid Time: 4.5491s, LR: 1.0000e-03
…
