…
001, wdecay=0.0001, dropout=0.1, clip_grad_value=5)
2025-05-07 18:02:24,675 - Adj path: /home/weichen/stg_project/LargeST/data/pems07/pems07_rn_adj.npy
2025-05-07 18:02:26,026 - Data shape: (28224, 883, 3)
2025-05-07 18:02:27,147 - Sample num: 16921, Batch num: 528
2025-05-07 18:02:28,268 - Sample num: 5640, Batch num: 176
2025-05-07 18:02:29,391 - Sample num: 5640, Batch num: 176
2025-05-07 18:02:30,197 - The arc of model:
STTN(
  (t_modules): ModuleList(
    (0-1): 2 x TemporalTransformer(
      (layers): ModuleList(
        (0): ModuleList(
          (0): TemporalAttention(
            (qkv): Linear(in_features=32, out_features=96, bias=False)
            (attn_drop): Dropout(p=0.1, inplace=False)
            (proj): Linear(in_features=32, out_features=32, bias=True)
            (proj_drop): Dropout(p=0.1, inplace=False)
          )
          (1): PreNorm(
            (norm): LayerNorm((32,), eps=1e-05, elementwise_affine=True)
            (fn): FeedForward(
              (net): Sequential(
                (0): Linear(in_features=32, out_features=64, bias=True)
                (1): GELU(approximate='none')
                (2): Dropout(p=0.1, inplace=False)
                (3): Linear(in_features=64, out_features=32, bias=True)
                (4): Dropout(p=0.1, inplace=False)
              )
            )
          )
        )
      )
    )
  )
  (s_modules): ModuleList(
    (0-1): 2 x SpatialTransformer(
      (layers): ModuleList(
        (0): ModuleList(
          (0): SpatialAttention(
            (qkv): Linear(in_features=32, out_features=96, bias=False)
            (attn_drop): Dropout(p=0.1, inplace=False)
            (proj): Linear(in_features=32, out_features=32, bias=True)
            (proj_drop): Dropout(p=0.1, inplace=False)
          )
          (1): PreNorm(
            (norm): LayerNorm((32,), eps=1e-05, elementwise_affine=True)
            (fn): FeedForward(
              (net): Sequential(
                (0): Linear(in_features=32, out_features=64, bias=True)
                (1): GELU(approximate='none')
                (2): Dropout(p=0.1, inplace=False)
                (3): Linear(in_features=64, out_features=32, bias=True)
                (4): Dropout(p=0.1, inplace=False)
              )
            )
          )
          (2): GCN(
            (nconv): nconv()
            (mlp): linear(
              (mlp): Conv2d(160, 32, kernel_size=(1, 1), stride=(1, 1))
            )
          )
        )
      )
    )
  )
  (bn): ModuleList(
    (0-1): 2 x BatchNorm2d(32, eps=1e-05, momentum=0.1, affine=True, track_running_stats=True)
  )
  (start_conv): Conv2d(3, 32, kernel_size=(1, 1), stride=(1, 1))
  (end_conv_1): Conv2d(32, 512, kernel_size=(1, 1), stride=(1, 1))
  (end_conv_2): Conv2d(512, 12, kernel_size=(1, 1), stride=(1, 1))
)
2025-05-07 18:02:30,198 - Number of total parameters: 124428, tunable parameters: 124428
2025-05-07 18:02:30,198 - The number of parameters: 124428
2025-05-07 18:02:30,198 - Start training!
2025-05-07 18:06:44,838 - Epoch: 001, Train Loss: 36.9335, Train RMSE: 52.5282, Train MAPE: 0.2641, Valid Loss: 27.5749, Valid RMSE: 41.7611, Valid MAPE: 0.1451, Train Time: 227.2041s/epoch, Valid Time: 27.4354s, LR: 1.0000e-03
…
