…
=0.001, wdecay=0.0001, dropout=0.1, clip_grad_value=5)
2025-05-08 02:01:35,560 - Adj path: /home/weichen/stg_project/LargeST/data/knowair/knowair_rn_adj.npy
2025-05-08 02:01:36,045 - Data shape: (11688, 184, 3)
2025-05-08 02:01:36,133 - Sample num: 700, Batch num: 10
2025-05-08 02:01:36,221 - Sample num: 2333, Batch num: 36
2025-05-08 02:01:36,310 - Sample num: 2333, Batch num: 36
2025-05-08 02:01:37,119 - The arc of model:
STTN(
  (t_modules): ModuleList(
    (0-1): 2 x TemporalTransformer(
      (layers): ModuleList(
        (0): ModuleList(
          (0): TemporalAttention(
            (qkv): Linear(in_features=32, out_features=96, bias=False)
            (attn_drop): Dropout(p=0.1, inplace=False)
            (proj): Linear(in_features=32, out_features=32, bias=True)
            (proj_drop): Dropout(p=0.1, inplace=False)
          )
          (1): PreNorm(
            (norm): LayerNorm((32,), eps=1e-05, elementwise_affine=True)
            (fn): FeedForward(
              (net): Sequential(
                (0): Linear(in_features=32, out_features=64, bias=True)
                (1): GELU(approximate='none')
                (2): Dropout(p=0.1, inplace=False)
                (3): Linear(in_features=64, out_features=32, bias=True)
                (4): Dropout(p=0.1, inplace=False)
              )
            )
          )
        )
      )
    )
  )
  (s_modules): ModuleList(
    (0-1): 2 x SpatialTransformer(
      (layers): ModuleList(
        (0): ModuleList(
          (0): SpatialAttention(
            (qkv): Linear(in_features=32, out_features=96, bias=False)
            (attn_drop): Dropout(p=0.1, inplace=False)
            (proj): Linear(in_features=32, out_features=32, bias=True)
            (proj_drop): Dropout(p=0.1, inplace=False)
          )
          (1): PreNorm(
            (norm): LayerNorm((32,), eps=1e-05, elementwise_affine=True)
            (fn): FeedForward(
              (net): Sequential(
                (0): Linear(in_features=32, out_features=64, bias=True)
                (1): GELU(approximate='none')
                (2): Dropout(p=0.1, inplace=False)
                (3): Linear(in_features=64, out_features=32, bias=True)
                (4): Dropout(p=0.1, inplace=False)
              )
            )
          )
          (2): GCN(
            (nconv): nconv()
            (mlp): linear(
              (mlp): Conv2d(160, 32, kernel_size=(1, 1), stride=(1, 1))
            )
          )
        )
      )
    )
  )
  (bn): ModuleList(
    (0-1): 2 x BatchNorm2d(32, eps=1e-05, momentum=0.1, affine=True, track_running_stats=True)
  )
  (start_conv): Conv2d(3, 32, kernel_size=(1, 1), stride=(1, 1))
  (end_conv_1): Conv2d(32, 512, kernel_size=(1, 1), stride=(1, 1))
  (end_conv_2): Conv2d(512, 12, kernel_size=(1, 1), stride=(1, 1))
)
2025-05-08 02:01:37,120 - Number of total parameters: 79692, tunable parameters: 79692
2025-05-08 02:01:37,120 - The number of parameters: 79692
2025-05-08 02:01:37,120 - Start training!
2025-05-08 02:01:48,810 - Epoch: 001, Train Loss: 36.2864, Train RMSE: 51.0655, Train MAPE: 0.7644, Valid Loss: 23.9896, Valid RMSE: 34.7932, Valid MAPE: 0.7910, Train Time: 5.9665s/epoch, Valid Time: 5.7238s, LR: 1.0000e-03
…
